…
        [0, 0, 0]],

       ..., 
       [[0, 0, 0],
        [0, 0, 0],
        [0, 0, 0],
        ..., 
        [0, 0, 0],
        [0, 0, 0],
        [0, 0, 0]],

       [[0, 0, 0],
        [0, 0, 0],
        [0, 0, 0],
        ..., 
        [0, 0, 0],
        [0, 0, 0],
        [0, 0, 0]],

       [[0, 0, 0],
        [0, 0, 0],
        [0, 0, 0],
        ..., 
        [0, 0, 0],
        [0, 0, 0],
        [0, 0, 0]]], dtype=uint8)] 0 RGB
THE RESULT OF INFERENCE OF RGB COMING OUT!
this is the net from make_infer DataParallel(
  (module): TSN(
    (base_model): BNInception(
      (conv1_7x7_s2): Conv2d(3, 64, kernel_size=(7, 7), stride=(2, 2), padding=(3, 3))
      (conv1_7x7_s2_bn): BatchNorm2d(64, eps=1e-05, momentum=0.1, affine=True)
      (conv1_relu_7x7): ReLU(inplace)
      (pool1_3x3_s2): MaxPool2d(kernel_size=(3, 3), stride=(2, 2), dilation=(1, 1), ceil_mode=True)
      (conv2_3x3_reduce): Conv2d(64, 64, kernel_size=(1, 1), stride=(1, 1))
      (conv2_3x3_reduce_bn): BatchNorm2d(64, eps=1e-05, momentum=0.1, affine=True)
      (conv2_relu_3x3_reduce): ReLU(inplace)
      (conv2_3x3): Conv2d(64, 192, kernel_size=(3, 3), stride=(1, 1), padding=(1, 1))
      (conv2_3x3_bn): BatchNorm2d(192, eps=1e-05, momentum=0.1, affine=True)
      (conv2_relu_3x3): ReLU(inplace)
      (pool2_3x3_s2): MaxPool2d(kernel_size=(3, 3), stride=(2, 2), dilation=(1, 1), ceil_mode=True)
      (inception_3a_1x1): Conv2d(192, 64, kernel_size=(1, 1), stride=(1, 1))
      (inception_3a_1x1_bn): BatchNorm2d(64, eps=1e-05, momentum=0.1, affine=True)
      (inception_3a_relu_1x1): ReLU(inplace)
      (inception_3a_3x3_reduce): Conv2d(192, 64, kernel_size=(1, 1), stride=(1, 1))
      (inception_3a_3x3_reduce_bn): BatchNorm2d(64, eps=1e-05, momentum=0.1, affine=True)
      (inception_3a_relu_3x3_reduce): ReLU(inplace)
      (inception_3a_3x3): Conv2d(64, 64, kernel_size=(3, 3), stride=(1, 1), padding=(1, 1))
      (inception_3a_3x3_bn): BatchNorm2d(64, eps=1e-05, momentum=0.1, affine=True)
      (inception_3a_relu_3x3): ReLU(inplace)
      (inception_3a_double_3x3_reduce): Conv2d(192, 64, kernel_size=(1, 1), stride=(1, 1))
      (inception_3a_double_3x3_reduce_bn): BatchNorm2d(64, eps=1e-05, momentum=0.1, affine=True)
      (inception_3a_relu_double_3x3_reduce): ReLU(inplace)
      (inception_3a_double_3x3_1): Conv2d(64, 96, kernel_size=(3, 3), stride=(1, 1), padding=(1, 1))
      (inception_3a_double_3x3_1_bn): BatchNorm2d(96, eps=1e-05, momentum=0.1, affine=True)
      (inception_3a_relu_double_3x3_1): ReLU(inplace)
      (inception_3a_double_3x3_2): Conv2d(96, 96, kernel_size=(3, 3), stride=(1, 1), padding=(1, 1))
      (inception_3a_double_3x3_2_bn): BatchNorm2d(96, eps=1e-05, momentum=0.1, affine=True)
      (inception_3a_relu_double_3x3_2): ReLU(inplace)
      (inception_3a_pool): AvgPool2d(kernel_size=3, stride=1, padding=1, ceil_mode=True, count_include_pad=True)
      (inception_3a_pool_proj): Conv2d(192, 32, kernel_size=(1, 1), stride=(1, 1))
      (inception_3a_pool_proj_bn): BatchNorm2d(32, eps=1e-05, momentum=0.1, affine=True)
      (inception_3a_relu_pool_proj): ReLU(inplace)
      (inception_3b_1x1): Conv2d(256, 64, kernel_size=(1, 1), stride=(1, 1))
      (inception_3b_1x1_bn): BatchNorm2d(64, eps=1e-05, momentum=0.1, affine=True)
      (inception_3b_relu_1x1): ReLU(inplace)
      (inception_3b_3x3_reduce): Conv2d(256, 64, kernel_size=(1, 1), stride=(1, 1))
      (inception_3b_3x3_reduce_bn): BatchNorm2d(64, eps=1e-05, momentum=0.1, affine=True)
      (inception_3b_relu_3x3_reduce): ReLU(inplace)
      (inception_3b_3x3): Conv2d(64, 96, kernel_size=(3, 3), stride=(1, 1), padding=(1, 1))
      (inception_3b_3x3_bn): BatchNorm2d(96, eps=1e-05, momentum=0.1, affine=True)
      (inception_3b_relu_3x3): ReLU(inplace)
      (inception_3b_double_3x3_reduce): Conv2d(256, 64, kernel_size=(1, 1), stride=(1, 1))
      (inception_3b_double_3x3_reduce_bn): BatchNorm2d(64, eps=1e-05, momentum=0.1, affine=True)
      (inception_3b_relu_double_3x3_reduce): ReLU(inplace)
      (inception_3b_double_3x3_1): Conv2d(64, 96, kernel_size=(3, 3), stride=(1, 1), padding=(1, 1))
      (inception_3b_double_3x3_1_bn): BatchNorm2d(96, eps=1e-05, momentum=0.1, affine=True)
      (inception_3b_relu_double_3x3_1): ReLU(inplace)
      (inception_3b_double_3x3_2): Conv2d(96, 96, kernel_size=(3, 3), stride=(1, 1), padding=(1, 1))
      (inception_3b_double_3x3_2_bn): BatchNorm2d(96, eps=1e-05, momentum=0.1, affine=True)
      (inception_3b_relu_double_3x3_2): ReLU(inplace)
      (inception_3b_pool): AvgPool2d(kernel_size=3, stride=1, padding=1, ceil_mode=True, count_include_pad=True)
      (inception_3b_pool_proj): Conv2d(256, 64, kernel_size=(1, 1), stride=(1, 1))
      (inception_3b_pool_proj_bn): BatchNorm2d(64, eps=1e-05, momentum=0.1, affine=True)
      (inception_3b_relu_pool_proj): ReLU(inplace)
      (inception_3c_3x3_reduce): Conv2d(320, 128, kernel_size=(1, 1), stride=(1, 1))
      (inception_3c_3x3_reduce_bn): BatchNorm2d(128, eps=1e-05, momentum=0.1, affine=True)
      (inception_3c_relu_3x3_reduce): ReLU(inplace)
      (inception_3c_3x3): Conv2d(128, 160, kernel_size=(3, 3), stride=(2, 2), padding=(1, 1))
      (inception_3c_3x3_bn): BatchNorm2d(160, eps=1e-05, momentum=0.1, affine=True)
      (inception_3c_relu_3x3): ReLU(inplace)
      (inception_3c_double_3x3_reduce): Conv2d(320, 64, kernel_size=(1, 1), stride=(1, 1))
      (inception_3c_double_3x3_reduce_bn): BatchNorm2d(64, eps=1e-05, momentum=0.1, affine=True)
      (inception_3c_relu_double_3x3_reduce): ReLU(inplace)
      (inception_3c_double_3x3_1): Conv2d(64, 96, kernel_size=(3, 3), stride=(1, 1), padding=(1, 1))
      (inception_3c_double_3x3_1_bn): BatchNorm2d(96, eps=1e-05, momentum=0.1, affine=True)
      (inception_3c_relu_double_3x3_1): ReLU(inplace)
      (inception_3c_double_3x3_2): Conv2d(96, 96, kernel_size=(3, 3), stride=(2, 2), padding=(1, 1))
      (inception_3c_double_3x3_2_bn): BatchNorm2d(96, eps=1e-05, momentum=0.1, affine=True)
      (inception_3c_relu_double_3x3_2): ReLU(inplace)
      (inception_3c_pool): MaxPool2d(kernel_size=(3, 3), stride=(2, 2), dilation=(1, 1), ceil_mode=True)
      (inception_4a_1x1): Conv2d(576, 224, kernel_size=(1, 1), stride=(1, 1))
      (inception_4a_1x1_bn): BatchNorm2d(224, eps=1e-05, momentum=0.1, affine=True)
      (inception_4a_relu_1x1): ReLU(inplace)
      (inception_4a_3x3_reduce): Conv2d(576, 64, kernel_size=(1, 1), stride=(1, 1))
      (inception_4a_3x3_reduce_bn): BatchNorm2d(64, eps=1e-05, momentum=0.1, affine=True)
      (inception_4a_relu_3x3_reduce): ReLU(inplace)
      (inception_4a_3x3): Conv2d(64, 96, kernel_size=(3, 3), stride=(1, 1), padding=(1, 1))
      (inception_4a_3x3_bn): BatchNorm2d(96, eps=1e-05, momentum=0.1, affine=True)
      (inception_4a_relu_3x3): ReLU(inplace)
      (inception_4a_double_3x3_reduce): Conv2d(576, 96, kernel_size=(1, 1), stride=(1, 1))
      (inception_4a_double_3x3_reduce_bn): BatchNorm2d(96, eps=1e-05, momentum=0.1, affine=True)
      (inception_4a_relu_double_3x3_reduce): ReLU(inplace)
      (inception_4a_double_3x3_1): Conv2d(96, 128, kernel_size=(3, 3), stride=(1, 1), padding=(1, 1))
      (inception_4a_double_3x3_1_bn): BatchNorm2d(128, eps=1e-05, momentum=0.1, affine=True)
      (inception_4a_relu_double_3x3_1): ReLU(inplace)
      (inception_4a_double_3x3_2): Conv2d(128, 128, kernel_size=(3, 3), stride=(1, 1), padding=(1, 1))
      (inception_4a_double_3x3_2_bn): BatchNorm2d(128, eps=1e-05, momentum=0.1, affine=True)
      (inception_4a_relu_double_3x3_2): ReLU(inplace)
      (inception_4a_pool): AvgPool2d(kernel_size=3, stride=1, padding=1, ceil_mode=True, count_include_pad=True)
      (inception_4a_pool_proj): Conv2d(576, 128, kernel_size=(1, 1), stride=(1, 1))
      (inception_4a_pool_proj_bn): BatchNorm2d(128, eps=1e-05, momentum=0.1, affine=True)
      (inception_4a_relu_pool_proj): ReLU(inplace)
      (inception_4b_1x1): Conv2d(576, 192, kernel_size=(1, 1), stride=(1, 1))
      (inception_4b_1x1_bn): BatchNorm2d(192, eps=1e-05, momentum=0.1, affine=True)
      (inception_4b_relu_1x1): ReLU(inplace)
      (inception_4b_3x3_reduce): Conv2d(576, 96, kernel_size=(1, 1), stride=(1, 1))
      (inception_4b_3x3_reduce_bn): BatchNorm2d(96, eps=1e-05, momentum=0.1, affine=True)
      (inception_4b_relu_3x3_reduce): ReLU(inplace)
      (inception_4b_3x3): Conv2d(96, 128, kernel_size=(3, 3), stride=(1, 1), padding=(1, 1))
      (inception_4b_3x3_bn): BatchNorm2d(128, eps=1e-05, momentum=0.1, affine=True)
      (inception_4b_relu_3x3): ReLU(inplace)
      (inception_4b_double_3x3_reduce): Conv2d(576, 96, kernel_size=(1, 1), stride=(1, 1))
      (inception_4b_double_3x3_reduce_bn): BatchNorm2d(96, eps=1e-05, momentum=0.1, affine=True)
      (inception_4b_relu_double_3x3_reduce): ReLU(inplace)
      (inception_4b_double_3x3_1): Conv2d(96, 128, kernel_size=(3, 3), stride=(1, 1), padding=(1, 1))
      (inception_4b_double_3x3_1_bn): BatchNorm2d(128, eps=1e-05, momentum=0.1, affine=True)
      (inception_4b_relu_double_3x3_1): ReLU(inplace)
      (inception_4b_double_3x3_2): Conv2d(128, 128, kernel_size=(3, 3), stride=(1, 1), padding=(1, 1))
      (inception_4b_double_3x3_2_bn): BatchNorm2d(128, eps=1e-05, momentum=0.1, affine=True)
      (inception_4b_relu_double_3x3_2): ReLU(inplace)
      (inception_4b_pool): AvgPool2d(kernel_size=3, stride=1, padding=1, ceil_mode=True, count_include_pad=True)
      (inception_4b_pool_proj): Conv2d(576, 128, kernel_size=(1, 1), stride=(1, 1))
      (inception_4b_pool_proj_bn): BatchNorm2d(128, eps=1e-05, momentum=0.1, affine=True)
      (inception_4b_relu_pool_proj): ReLU(inplace)
      (inception_4c_1x1): Conv2d(576, 160, kernel_size=(1, 1), stride=(1, 1))
      (inception_4c_1x1_bn): BatchNorm2d(160, eps=1e-05, momentum=0.1, affine=True)
      (inception_4c_relu_1x1): ReLU(inplace)
      (inception_4c_3x3_reduce): Conv2d(576, 128, kernel_size=(1, 1), stride=(1, 1))
      (inception_4c_3x3_reduce_bn): BatchNorm2d(128, eps=1e-05, momentum=0.1, affine=True)
      (inception_4c_relu_3x3_reduce): ReLU(inplace)
      (inception_4c_3x3): Conv2d(128, 160, kernel_size=(3, 3), stride=(1, 1), padding=(1, 1))
      (inception_4c_3x3_bn): BatchNorm2d(160, eps=1e-05, momentum=0.1, affine=True)
      (inception_4c_relu_3x3): ReLU(inplace)
      (inception_4c_double_3x3_reduce): Conv2d(576, 128, kernel_size=(1, 1), stride=(1, 1))
      (inception_4c_double_3x3_reduce_bn): BatchNorm2d(128, eps=1e-05, momentum=0.1, affine=True)
      (inception_4c_relu_double_3x3_reduce): ReLU(inplace)
      (inception_4c_double_3x3_1): Conv2d(128, 160, kernel_size=(3, 3), stride=(1, 1), padding=(1, 1))
      (inception_4c_double_3x3_1_bn): BatchNorm2d(160, eps=1e-05, momentum=0.1, affine=True)
      (inception_4c_relu_double_3x3_1): ReLU(inplace)
      (inception_4c_double_3x3_2): Conv2d(160, 160, kernel_size=(3, 3), stride=(1, 1), padding=(1, 1))
      (inception_4c_double_3x3_2_bn): BatchNorm2d(160, eps=1e-05, momentum=0.1, affine=True)
      (inception_4c_relu_double_3x3_2): ReLU(inplace)
      (inception_4c_pool): AvgPool2d(kernel_size=3, stride=1, padding=1, ceil_mode=True, count_include_pad=True)
      (inception_4c_pool_proj): Conv2d(576, 128, kernel_size=(1, 1), stride=(1, 1))
      (inception_4c_pool_proj_bn): BatchNorm2d(128, eps=1e-05, momentum=0.1, affine=True)
      (inception_4c_relu_pool_proj): ReLU(inplace)
      (inception_4d_1x1): Conv2d(608, 96, kernel_size=(1, 1), stride=(1, 1))
      (inception_4d_1x1_bn): BatchNorm2d(96, eps=1e-05, momentum=0.1, affine=True)
      (inception_4d_relu_1x1): ReLU(inplace)
      (inception_4d_3x3_reduce): Conv2d(608, 128, kernel_size=(1, 1), stride=(1, 1))
      (inception_4d_3x3_reduce_bn): BatchNorm2d(128, eps=1e-05, momentum=0.1, affine=True)
      (inception_4d_relu_3x3_reduce): ReLU(inplace)
      (inception_4d_3x3): Conv2d(128, 192, kernel_size=(3, 3), stride=(1, 1), padding=(1, 1))
      (inception_4d_3x3_bn): BatchNorm2d(192, eps=1e-05, momentum=0.1, affine=True)
      (inception_4d_relu_3x3): ReLU(inplace)
      (inception_4d_double_3x3_reduce): Conv2d(608, 160, kernel_size=(1, 1), stride=(1, 1))
      (inception_4d_double_3x3_reduce_bn): BatchNorm2d(160, eps=1e-05, momentum=0.1, affine=True)
      (inception_4d_relu_double_3x3_reduce): ReLU(inplace)
      (inception_4d_double_3x3_1): Conv2d(160, 192, kernel_size=(3, 3), stride=(1, 1), padding=(1, 1))
      (inception_4d_double_3x3_1_bn): BatchNorm2d(192, eps=1e-05, momentum=0.1, affine=True)
      (inception_4d_relu_double_3x3_1): ReLU(inplace)
      (inception_4d_double_3x3_2): Conv2d(192, 192, kernel_size=(3, 3), stride=(1, 1), padding=(1, 1))
      (inception_4d_double_3x3_2_bn): BatchNorm2d(192, eps=1e-05, momentum=0.1, affine=True)
      (inception_4d_relu_double_3x3_2): ReLU(inplace)
      (inception_4d_pool): AvgPool2d(kernel_size=3, stride=1, padding=1, ceil_mode=True, count_include_pad=True)
      (inception_4d_pool_proj): Conv2d(608, 128, kernel_size=(1, 1), stride=(1, 1))
      (inception_4d_pool_proj_bn): BatchNorm2d(128, eps=1e-05, momentum=0.1, affine=True)
      (inception_4d_relu_pool_proj): ReLU(inplace)
      (inception_4e_3x3_reduce): Conv2d(608, 128, kernel_size=(1, 1), stride=(1, 1))
      (inception_4e_3x3_reduce_bn): BatchNorm2d(128, eps=1e-05, momentum=0.1, affine=True)
      (inception_4e_relu_3x3_reduce): ReLU(inplace)
      (inception_4e_3x3): Conv2d(128, 192, kernel_size=(3, 3), stride=(2, 2), padding=(1, 1))
      (inception_4e_3x3_bn): BatchNorm2d(192, eps=1e-05, momentum=0.1, affine=True)
      (inception_4e_relu_3x3): ReLU(inplace)
      (inception_4e_double_3x3_reduce): Conv2d(608, 192, kernel_size=(1, 1), stride=(1, 1))
      (inception_4e_double_3x3_reduce_bn): BatchNorm2d(192, eps=1e-05, momentum=0.1, affine=True)
      (inception_4e_relu_double_3x3_reduce): ReLU(inplace)
      (inception_4e_double_3x3_1): Conv2d(192, 256, kernel_size=(3, 3), stride=(1, 1), padding=(1, 1))
      (inception_4e_double_3x3_1_bn): BatchNorm2d(256, eps=1e-05, momentum=0.1, affine=True)
      (inception_4e_relu_double_3x3_1): ReLU(inplace)
      (inception_4e_double_3x3_2): Conv2d(256, 256, kernel_size=(3, 3), stride=(2, 2), padding=(1, 1))
      (inception_4e_double_3x3_2_bn): BatchNorm2d(256, eps=1e-05, momentum=0.1, affine=True)
      (inception_4e_relu_double_3x3_2): ReLU(inplace)
      (inception_4e_pool): MaxPool2d(kernel_size=(3, 3), stride=(2, 2), dilation=(1, 1), ceil_mode=True)
      (inception_5a_1x1): Conv2d(1056, 352, kernel_size=(1, 1), stride=(1, 1))
      (inception_5a_1x1_bn): BatchNorm2d(352, eps=1e-05, momentum=0.1, affine=True)
      (inception_5a_relu_1x1): ReLU(inplace)
      (inception_5a_3x3_reduce): Conv2d(1056, 192, kernel_size=(1, 1), stride=(1, 1))
      (inception_5a_3x3_reduce_bn): BatchNorm2d(192, eps=1e-05, momentum=0.1, affine=True)
      (inception_5a_relu_3x3_reduce): ReLU(inplace)
      (inception_5a_3x3): Conv2d(192, 320, kernel_size=(3, 3), stride=(1, 1), padding=(1, 1))
      (inception_5a_3x3_bn): BatchNorm2d(320, eps=1e-05, momentum=0.1, affine=True)
      (inception_5a_relu_3x3): ReLU(inplace)
      (inception_5a_double_3x3_reduce): Conv2d(1056, 160, kernel_size=(1, 1), stride=(1, 1))
      (inception_5a_double_3x3_reduce_bn): BatchNorm2d(160, eps=1e-05, momentum=0.1, affine=True)
      (inception_5a_relu_double_3x3_reduce): ReLU(inplace)
      (inception_5a_double_3x3_1): Conv2d(160, 224, kernel_size=(3, 3), stride=(1, 1), padding=(1, 1))
      (inception_5a_double_3x3_1_bn): BatchNorm2d(224, eps=1e-05, momentum=0.1, affine=True)
      (inception_5a_relu_double_3x3_1): ReLU(inplace)
      (inception_5a_double_3x3_2): Conv2d(224, 224, kernel_size=(3, 3), stride=(1, 1), padding=(1, 1))
      (inception_5a_double_3x3_2_bn): BatchNorm2d(224, eps=1e-05, momentum=0.1, affine=True)
      (inception_5a_relu_double_3x3_2): ReLU(inplace)
      (inception_5a_pool): AvgPool2d(kernel_size=3, stride=1, padding=1, ceil_mode=True, count_include_pad=True)
      (inception_5a_pool_proj): Conv2d(1056, 128, kernel_size=(1, 1), stride=(1, 1))
      (inception_5a_pool_proj_bn): BatchNorm2d(128, eps=1e-05, momentum=0.1, affine=True)
      (inception_5a_relu_pool_proj): ReLU(inplace)
      (inception_5b_1x1): Conv2d(1024, 352, kernel_size=(1, 1), stride=(1, 1))
      (inception_5b_1x1_bn): BatchNorm2d(352, eps=1e-05, momentum=0.1, affine=True)
      (inception_5b_relu_1x1): ReLU(inplace)
      (inception_5b_3x3_reduce): Conv2d(1024, 192, kernel_size=(1, 1), stride=(1, 1))
      (inception_5b_3x3_reduce_bn): BatchNorm2d(192, eps=1e-05, momentum=0.1, affine=True)
      (inception_5b_relu_3x3_reduce): ReLU(inplace)
      (inception_5b_3x3): Conv2d(192, 320, kernel_size=(3, 3), stride=(1, 1), padding=(1, 1))
      (inception_5b_3x3_bn): BatchNorm2d(320, eps=1e-05, momentum=0.1, affine=True)
      (inception_5b_relu_3x3): ReLU(inplace)
      (inception_5b_double_3x3_reduce): Conv2d(1024, 192, kernel_size=(1, 1), stride=(1, 1))
      (inception_5b_double_3x3_reduce_bn): BatchNorm2d(192, eps=1e-05, momentum=0.1, affine=True)
      (inception_5b_relu_double_3x3_reduce): ReLU(inplace)
      (inception_5b_double_3x3_1): Conv2d(192, 224, kernel_size=(3, 3), stride=(1, 1), padding=(1, 1))
      (inception_5b_double_3x3_1_bn): BatchNorm2d(224, eps=1e-05, momentum=0.1, affine=True)
      (inception_5b_relu_double_3x3_1): ReLU(inplace)
      (inception_5b_double_3x3_2): Conv2d(224, 224, kernel_size=(3, 3), stride=(1, 1), padding=(1, 1))
      (inception_5b_double_3x3_2_bn): BatchNorm2d(224, eps=1e-05, momentum=0.1, affine=True)
      (inception_5b_relu_double_3x3_2): ReLU(inplace)
      (inception_5b_pool): MaxPool2d(kernel_size=(3, 3), stride=(1, 1), padding=(1, 1), dilation=(1, 1), ceil_mode=True)
      (inception_5b_pool_proj): Conv2d(1024, 128, kernel_size=(1, 1), stride=(1, 1))
      (inception_5b_pool_proj_bn): BatchNorm2d(128, eps=1e-05, momentum=0.1, affine=True)
      (inception_5b_relu_pool_proj): ReLU(inplace)
      (global_pool): AvgPool2d(kernel_size=7, stride=1, padding=0, ceil_mode=True, count_include_pad=True)
      (fc): Dropout(p=0.7)
    )
    (new_fc): Linear(in_features=1024, out_features=51, bias=True)
    (consensus): ConsensusModule(
    )
  )
)  and this is the length of fifty data list (supposed to be fifty? 50
successfully extracted optical flow in 1.0064046382904053!
this is the length of optical_flow list from get_from_queue 5 244
this is the size of queue before putitng into tmp_list 244
[array([[[0, 0, 0],
        [0, 0, 0],
        [0, 0, 0],
…
       [ 127.5,  127.5,  127.5, ...,  127.5,  127.5,  127.5]], dtype=float32), array([[ 127.5,  127.5,  127.5, ...,  127.5,  127.5,  127.5],
       [ 127.5,  127.5,  127.5, ...,  127.5,  127.5,  127.5],
       [ 127.5,  127.5,  127.5, ...,  127.5,  127.5,  127.5],
       ..., 
       [ 127.5,  127.5,  127.5, ...,  127.5,  127.5,  127.5],
       [ 127.5,  127.5,  127.5, ...,  127.5,  127.5,  127.5],
       [ 127.5,  127.5,  127.5, ...,  127.5,  127.5,  127.5]], dtype=float32)]] 0 Flow
THE RESULT OF INFERENCE OF Flow COMING OUT!
this is the net from make_infer DataParallel(
  (module): TSN(
    (base_model): BNInception(
      (conv1_7x7_s2): Conv2d(10, 64, kernel_size=(7, 7), stride=(2, 2), padding=(3, 3))
      (conv1_7x7_s2_bn): BatchNorm2d(64, eps=1e-05, momentum=0.1, affine=True)
      (conv1_relu_7x7): ReLU(inplace)
      (pool1_3x3_s2): MaxPool2d(kernel_size=(3, 3), stride=(2, 2), dilation=(1, 1), ceil_mode=True)
      (conv2_3x3_reduce): Conv2d(64, 64, kernel_size=(1, 1), stride=(1, 1))
      (conv2_3x3_reduce_bn): BatchNorm2d(64, eps=1e-05, momentum=0.1, affine=True)
      (conv2_relu_3x3_reduce): ReLU(inplace)
      (conv2_3x3): Conv2d(64, 192, kernel_size=(3, 3), stride=(1, 1), padding=(1, 1))
      (conv2_3x3_bn): BatchNorm2d(192, eps=1e-05, momentum=0.1, affine=True)
      (conv2_relu_3x3): ReLU(inplace)
      (pool2_3x3_s2): MaxPool2d(kernel_size=(3, 3), stride=(2, 2), dilation=(1, 1), ceil_mode=True)
      (inception_3a_1x1): Conv2d(192, 64, kernel_size=(1, 1), stride=(1, 1))
      (inception_3a_1x1_bn): BatchNorm2d(64, eps=1e-05, momentum=0.1, affine=True)
      (inception_3a_relu_1x1): ReLU(inplace)
      (inception_3a_3x3_reduce): Conv2d(192, 64, kernel_size=(1, 1), stride=(1, 1))
      (inception_3a_3x3_reduce_bn): BatchNorm2d(64, eps=1e-05, momentum=0.1, affine=True)
      (inception_3a_relu_3x3_reduce): ReLU(inplace)
      (inception_3a_3x3): Conv2d(64, 64, kernel_size=(3, 3), stride=(1, 1), padding=(1, 1))
      (inception_3a_3x3_bn): BatchNorm2d(64, eps=1e-05, momentum=0.1, affine=True)
      (inception_3a_relu_3x3): ReLU(inplace)
      (inception_3a_double_3x3_reduce): Conv2d(192, 64, kernel_size=(1, 1), stride=(1, 1))
      (inception_3a_double_3x3_reduce_bn): BatchNorm2d(64, eps=1e-05, momentum=0.1, affine=True)
      (inception_3a_relu_double_3x3_reduce): ReLU(inplace)
      (inception_3a_double_3x3_1): Conv2d(64, 96, kernel_size=(3, 3), stride=(1, 1), padding=(1, 1))
      (inception_3a_double_3x3_1_bn): BatchNorm2d(96, eps=1e-05, momentum=0.1, affine=True)
      (inception_3a_relu_double_3x3_1): ReLU(inplace)
      (inception_3a_double_3x3_2): Conv2d(96, 96, kernel_size=(3, 3), stride=(1, 1), padding=(1, 1))
      (inception_3a_double_3x3_2_bn): BatchNorm2d(96, eps=1e-05, momentum=0.1, affine=True)
      (inception_3a_relu_double_3x3_2): ReLU(inplace)
      (inception_3a_pool): AvgPool2d(kernel_size=3, stride=1, padding=1, ceil_mode=True, count_include_pad=True)
      (inception_3a_pool_proj): Conv2d(192, 32, kernel_size=(1, 1), stride=(1, 1))
      (inception_3a_pool_proj_bn): BatchNorm2d(32, eps=1e-05, momentum=0.1, affine=True)
      (inception_3a_relu_pool_proj): ReLU(inplace)
      (inception_3b_1x1): Conv2d(256, 64, kernel_size=(1, 1), stride=(1, 1))
      (inception_3b_1x1_bn): BatchNorm2d(64, eps=1e-05, momentum=0.1, affine=True)
      (inception_3b_relu_1x1): ReLU(inplace)
      (inception_3b_3x3_reduce): Conv2d(256, 64, kernel_size=(1, 1), stride=(1, 1))
      (inception_3b_3x3_reduce_bn): BatchNorm2d(64, eps=1e-05, momentum=0.1, affine=True)
      (inception_3b_relu_3x3_reduce): ReLU(inplace)
      (inception_3b_3x3): Conv2d(64, 96, kernel_size=(3, 3), stride=(1, 1), padding=(1, 1))
      (inception_3b_3x3_bn): BatchNorm2d(96, eps=1e-05, momentum=0.1, affine=True)
      (inception_3b_relu_3x3): ReLU(inplace)
      (inception_3b_double_3x3_reduce): Conv2d(256, 64, kernel_size=(1, 1), stride=(1, 1))
      (inception_3b_double_3x3_reduce_bn): BatchNorm2d(64, eps=1e-05, momentum=0.1, affine=True)
      (inception_3b_relu_double_3x3_reduce): ReLU(inplace)
      (inception_3b_double_3x3_1): Conv2d(64, 96, kernel_size=(3, 3), stride=(1, 1), padding=(1, 1))
      (inception_3b_double_3x3_1_bn): BatchNorm2d(96, eps=1e-05, momentum=0.1, affine=True)
      (inception_3b_relu_double_3x3_1): ReLU(inplace)
      (inception_3b_double_3x3_2): Conv2d(96, 96, kernel_size=(3, 3), stride=(1, 1), padding=(1, 1))
      (inception_3b_double_3x3_2_bn): BatchNorm2d(96, eps=1e-05, momentum=0.1, affine=True)
      (inception_3b_relu_double_3x3_2): ReLU(inplace)
      (inception_3b_pool): AvgPool2d(kernel_size=3, stride=1, padding=1, ceil_mode=True, count_include_pad=True)
      (inception_3b_pool_proj): Conv2d(256, 64, kernel_size=(1, 1), stride=(1, 1))
      (inception_3b_pool_proj_bn): BatchNorm2d(64, eps=1e-05, momentum=0.1, affine=True)
      (inception_3b_relu_pool_proj): ReLU(inplace)
      (inception_3c_3x3_reduce): Conv2d(320, 128, kernel_size=(1, 1), stride=(1, 1))
      (inception_3c_3x3_reduce_bn): BatchNorm2d(128, eps=1e-05, momentum=0.1, affine=True)
      (inception_3c_relu_3x3_reduce): ReLU(inplace)
      (inception_3c_3x3): Conv2d(128, 160, kernel_size=(3, 3), stride=(2, 2), padding=(1, 1))
      (inception_3c_3x3_bn): BatchNorm2d(160, eps=1e-05, momentum=0.1, affine=True)
      (inception_3c_relu_3x3): ReLU(inplace)
      (inception_3c_double_3x3_reduce): Conv2d(320, 64, kernel_size=(1, 1), stride=(1, 1))
      (inception_3c_double_3x3_reduce_bn): BatchNorm2d(64, eps=1e-05, momentum=0.1, affine=True)
      (inception_3c_relu_double_3x3_reduce): ReLU(inplace)
      (inception_3c_double_3x3_1): Conv2d(64, 96, kernel_size=(3, 3), stride=(1, 1), padding=(1, 1))
      (inception_3c_double_3x3_1_bn): BatchNorm2d(96, eps=1e-05, momentum=0.1, affine=True)
      (inception_3c_relu_double_3x3_1): ReLU(inplace)
      (inception_3c_double_3x3_2): Conv2d(96, 96, kernel_size=(3, 3), stride=(2, 2), padding=(1, 1))
      (inception_3c_double_3x3_2_bn): BatchNorm2d(96, eps=1e-05, momentum=0.1, affine=True)
      (inception_3c_relu_double_3x3_2): ReLU(inplace)
      (inception_3c_pool): MaxPool2d(kernel_size=(3, 3), stride=(2, 2), dilation=(1, 1), ceil_mode=True)
      (inception_4a_1x1): Conv2d(576, 224, kernel_size=(1, 1), stride=(1, 1))
      (inception_4a_1x1_bn): BatchNorm2d(224, eps=1e-05, momentum=0.1, affine=True)
      (inception_4a_relu_1x1): ReLU(inplace)
      (inception_4a_3x3_reduce): Conv2d(576, 64, kernel_size=(1, 1), stride=(1, 1))
      (inception_4a_3x3_reduce_bn): BatchNorm2d(64, eps=1e-05, momentum=0.1, affine=True)
      (inception_4a_relu_3x3_reduce): ReLU(inplace)
      (inception_4a_3x3): Conv2d(64, 96, kernel_size=(3, 3), stride=(1, 1), padding=(1, 1))
      (inception_4a_3x3_bn): BatchNorm2d(96, eps=1e-05, momentum=0.1, affine=True)
      (inception_4a_relu_3x3): ReLU(inplace)
      (inception_4a_double_3x3_reduce): Conv2d(576, 96, kernel_size=(1, 1), stride=(1, 1))
      (inception_4a_double_3x3_reduce_bn): BatchNorm2d(96, eps=1e-05, momentum=0.1, affine=True)
      (inception_4a_relu_double_3x3_reduce): ReLU(inplace)
      (inception_4a_double_3x3_1): Conv2d(96, 128, kernel_size=(3, 3), stride=(1, 1), padding=(1, 1))
      (inception_4a_double_3x3_1_bn): BatchNorm2d(128, eps=1e-05, momentum=0.1, affine=True)
      (inception_4a_relu_double_3x3_1): ReLU(inplace)
      (inception_4a_double_3x3_2): Conv2d(128, 128, kernel_size=(3, 3), stride=(1, 1), padding=(1, 1))
      (inception_4a_double_3x3_2_bn): BatchNorm2d(128, eps=1e-05, momentum=0.1, affine=True)
      (inception_4a_relu_double_3x3_2): ReLU(inplace)
      (inception_4a_pool): AvgPool2d(kernel_size=3, stride=1, padding=1, ceil_mode=True, count_include_pad=True)
      (inception_4a_pool_proj): Conv2d(576, 128, kernel_size=(1, 1), stride=(1, 1))
      (inception_4a_pool_proj_bn): BatchNorm2d(128, eps=1e-05, momentum=0.1, affine=True)
      (inception_4a_relu_pool_proj): ReLU(inplace)
      (inception_4b_1x1): Conv2d(576, 192, kernel_size=(1, 1), stride=(1, 1))
      (inception_4b_1x1_bn): BatchNorm2d(192, eps=1e-05, momentum=0.1, affine=True)
      (inception_4b_relu_1x1): ReLU(inplace)
      (inception_4b_3x3_reduce): Conv2d(576, 96, kernel_size=(1, 1), stride=(1, 1))
      (inception_4b_3x3_reduce_bn): BatchNorm2d(96, eps=1e-05, momentum=0.1, affine=True)
      (inception_4b_relu_3x3_reduce): ReLU(inplace)
      (inception_4b_3x3): Conv2d(96, 128, kernel_size=(3, 3), stride=(1, 1), padding=(1, 1))
      (inception_4b_3x3_bn): BatchNorm2d(128, eps=1e-05, momentum=0.1, affine=True)
      (inception_4b_relu_3x3): ReLU(inplace)
      (inception_4b_double_3x3_reduce): Conv2d(576, 96, kernel_size=(1, 1), stride=(1, 1))
      (inception_4b_double_3x3_reduce_bn): BatchNorm2d(96, eps=1e-05, momentum=0.1, affine=True)
      (inception_4b_relu_double_3x3_reduce): ReLU(inplace)
      (inception_4b_double_3x3_1): Conv2d(96, 128, kernel_size=(3, 3), stride=(1, 1), padding=(1, 1))
      (inception_4b_double_3x3_1_bn): BatchNorm2d(128, eps=1e-05, momentum=0.1, affine=True)
      (inception_4b_relu_double_3x3_1): ReLU(inplace)
      (inception_4b_double_3x3_2): Conv2d(128, 128, kernel_size=(3, 3), stride=(1, 1), padding=(1, 1))
      (inception_4b_double_3x3_2_bn): BatchNorm2d(128, eps=1e-05, momentum=0.1, affine=True)
      (inception_4b_relu_double_3x3_2): ReLU(inplace)
      (inception_4b_pool): AvgPool2d(kernel_size=3, stride=1, padding=1, ceil_mode=True, count_include_pad=True)
      (inception_4b_pool_proj): Conv2d(576, 128, kernel_size=(1, 1), stride=(1, 1))
      (inception_4b_pool_proj_bn): BatchNorm2d(128, eps=1e-05, momentum=0.1, affine=True)
      (inception_4b_relu_pool_proj): ReLU(inplace)
      (inception_4c_1x1): Conv2d(576, 160, kernel_size=(1, 1), stride=(1, 1))
      (inception_4c_1x1_bn): BatchNorm2d(160, eps=1e-05, momentum=0.1, affine=True)
      (inception_4c_relu_1x1): ReLU(inplace)
      (inception_4c_3x3_reduce): Conv2d(576, 128, kernel_size=(1, 1), stride=(1, 1))
      (inception_4c_3x3_reduce_bn): BatchNorm2d(128, eps=1e-05, momentum=0.1, affine=True)
      (inception_4c_relu_3x3_reduce): ReLU(inplace)
      (inception_4c_3x3): Conv2d(128, 160, kernel_size=(3, 3), stride=(1, 1), padding=(1, 1))
      (inception_4c_3x3_bn): BatchNorm2d(160, eps=1e-05, momentum=0.1, affine=True)
      (inception_4c_relu_3x3): ReLU(inplace)
      (inception_4c_double_3x3_reduce): Conv2d(576, 128, kernel_size=(1, 1), stride=(1, 1))
      (inception_4c_double_3x3_reduce_bn): BatchNorm2d(128, eps=1e-05, momentum=0.1, affine=True)
      (inception_4c_relu_double_3x3_reduce): ReLU(inplace)
      (inception_4c_double_3x3_1): Conv2d(128, 160, kernel_size=(3, 3), stride=(1, 1), padding=(1, 1))
      (inception_4c_double_3x3_1_bn): BatchNorm2d(160, eps=1e-05, momentum=0.1, affine=True)
      (inception_4c_relu_double_3x3_1): ReLU(inplace)
      (inception_4c_double_3x3_2): Conv2d(160, 160, kernel_size=(3, 3), stride=(1, 1), padding=(1, 1))
      (inception_4c_double_3x3_2_bn): BatchNorm2d(160, eps=1e-05, momentum=0.1, affine=True)
      (inception_4c_relu_double_3x3_2): ReLU(inplace)
      (inception_4c_pool): AvgPool2d(kernel_size=3, stride=1, padding=1, ceil_mode=True, count_include_pad=True)
      (inception_4c_pool_proj): Conv2d(576, 128, kernel_size=(1, 1), stride=(1, 1))
      (inception_4c_pool_proj_bn): BatchNorm2d(128, eps=1e-05, momentum=0.1, affine=True)
      (inception_4c_relu_pool_proj): ReLU(inplace)
      (inception_4d_1x1): Conv2d(608, 96, kernel_size=(1, 1), stride=(1, 1))
      (inception_4d_1x1_bn): BatchNorm2d(96, eps=1e-05, momentum=0.1, affine=True)
      (inception_4d_relu_1x1): ReLU(inplace)
      (inception_4d_3x3_reduce): Conv2d(608, 128, kernel_size=(1, 1), stride=(1, 1))
      (inception_4d_3x3_reduce_bn): BatchNorm2d(128, eps=1e-05, momentum=0.1, affine=True)
      (inception_4d_relu_3x3_reduce): ReLU(inplace)
      (inception_4d_3x3): Conv2d(128, 192, kernel_size=(3, 3), stride=(1, 1), padding=(1, 1))
      (inception_4d_3x3_bn): BatchNorm2d(192, eps=1e-05, momentum=0.1, affine=True)
      (inception_4d_relu_3x3): ReLU(inplace)
      (inception_4d_double_3x3_reduce): Conv2d(608, 160, kernel_size=(1, 1), stride=(1, 1))
      (inception_4d_double_3x3_reduce_bn): BatchNorm2d(160, eps=1e-05, momentum=0.1, affine=True)
      (inception_4d_relu_double_3x3_reduce): ReLU(inplace)
      (inception_4d_double_3x3_1): Conv2d(160, 192, kernel_size=(3, 3), stride=(1, 1), padding=(1, 1))
      (inception_4d_double_3x3_1_bn): BatchNorm2d(192, eps=1e-05, momentum=0.1, affine=True)
      (inception_4d_relu_double_3x3_1): ReLU(inplace)
      (inception_4d_double_3x3_2): Conv2d(192, 192, kernel_size=(3, 3), stride=(1, 1), padding=(1, 1))
      (inception_4d_double_3x3_2_bn): BatchNorm2d(192, eps=1e-05, momentum=0.1, affine=True)
      (inception_4d_relu_double_3x3_2): ReLU(inplace)
      (inception_4d_pool): AvgPool2d(kernel_size=3, stride=1, padding=1, ceil_mode=True, count_include_pad=True)
      (inception_4d_pool_proj): Conv2d(608, 128, kernel_size=(1, 1), stride=(1, 1))
      (inception_4d_pool_proj_bn): BatchNorm2d(128, eps=1e-05, momentum=0.1, affine=True)
      (inception_4d_relu_pool_proj): ReLU(inplace)
      (inception_4e_3x3_reduce): Conv2d(608, 128, kernel_size=(1, 1), stride=(1, 1))
      (inception_4e_3x3_reduce_bn): BatchNorm2d(128, eps=1e-05, momentum=0.1, affine=True)
      (inception_4e_relu_3x3_reduce): ReLU(inplace)
      (inception_4e_3x3): Conv2d(128, 192, kernel_size=(3, 3), stride=(2, 2), padding=(1, 1))
      (inception_4e_3x3_bn): BatchNorm2d(192, eps=1e-05, momentum=0.1, affine=True)
      (inception_4e_relu_3x3): ReLU(inplace)
      (inception_4e_double_3x3_reduce): Conv2d(608, 192, kernel_size=(1, 1), stride=(1, 1))
      (inception_4e_double_3x3_reduce_bn): BatchNorm2d(192, eps=1e-05, momentum=0.1, affine=True)
      (inception_4e_relu_double_3x3_reduce): ReLU(inplace)
      (inception_4e_double_3x3_1): Conv2d(192, 256, kernel_size=(3, 3), stride=(1, 1), padding=(1, 1))
      (inception_4e_double_3x3_1_bn): BatchNorm2d(256, eps=1e-05, momentum=0.1, affine=True)
      (inception_4e_relu_double_3x3_1): ReLU(inplace)
      (inception_4e_double_3x3_2): Conv2d(256, 256, kernel_size=(3, 3), stride=(2, 2), padding=(1, 1))
      (inception_4e_double_3x3_2_bn): BatchNorm2d(256, eps=1e-05, momentum=0.1, affine=True)
      (inception_4e_relu_double_3x3_2): ReLU(inplace)
      (inception_4e_pool): MaxPool2d(kernel_size=(3, 3), stride=(2, 2), dilation=(1, 1), ceil_mode=True)
      (inception_5a_1x1): Conv2d(1056, 352, kernel_size=(1, 1), stride=(1, 1))
      (inception_5a_1x1_bn): BatchNorm2d(352, eps=1e-05, momentum=0.1, affine=True)
      (inception_5a_relu_1x1): ReLU(inplace)
      (inception_5a_3x3_reduce): Conv2d(1056, 192, kernel_size=(1, 1), stride=(1, 1))
      (inception_5a_3x3_reduce_bn): BatchNorm2d(192, eps=1e-05, momentum=0.1, affine=True)
      (inception_5a_relu_3x3_reduce): ReLU(inplace)
      (inception_5a_3x3): Conv2d(192, 320, kernel_size=(3, 3), stride=(1, 1), padding=(1, 1))
      (inception_5a_3x3_bn): BatchNorm2d(320, eps=1e-05, momentum=0.1, affine=True)
      (inception_5a_relu_3x3): ReLU(inplace)
      (inception_5a_double_3x3_reduce): Conv2d(1056, 160, kernel_size=(1, 1), stride=(1, 1))
      (inception_5a_double_3x3_reduce_bn): BatchNorm2d(160, eps=1e-05, momentum=0.1, affine=True)
      (inception_5a_relu_double_3x3_reduce): ReLU(inplace)
      (inception_5a_double_3x3_1): Conv2d(160, 224, kernel_size=(3, 3), stride=(1, 1), padding=(1, 1))
      (inception_5a_double_3x3_1_bn): BatchNorm2d(224, eps=1e-05, momentum=0.1, affine=True)
      (inception_5a_relu_double_3x3_1): ReLU(inplace)
      (inception_5a_double_3x3_2): Conv2d(224, 224, kernel_size=(3, 3), stride=(1, 1), padding=(1, 1))
      (inception_5a_double_3x3_2_bn): BatchNorm2d(224, eps=1e-05, momentum=0.1, affine=True)
      (inception_5a_relu_double_3x3_2): ReLU(inplace)
      (inception_5a_pool): AvgPool2d(kernel_size=3, stride=1, padding=1, ceil_mode=True, count_include_pad=True)
      (inception_5a_pool_proj): Conv2d(1056, 128, kernel_size=(1, 1), stride=(1, 1))
      (inception_5a_pool_proj_bn): BatchNorm2d(128, eps=1e-05, momentum=0.1, affine=True)
      (inception_5a_relu_pool_proj): ReLU(inplace)
      (inception_5b_1x1): Conv2d(1024, 352, kernel_size=(1, 1), stride=(1, 1))
      (inception_5b_1x1_bn): BatchNorm2d(352, eps=1e-05, momentum=0.1, affine=True)
      (inception_5b_relu_1x1): ReLU(inplace)
      (inception_5b_3x3_reduce): Conv2d(1024, 192, kernel_size=(1, 1), stride=(1, 1))
      (inception_5b_3x3_reduce_bn): BatchNorm2d(192, eps=1e-05, momentum=0.1, affine=True)
      (inception_5b_relu_3x3_reduce): ReLU(inplace)
      (inception_5b_3x3): Conv2d(192, 320, kernel_size=(3, 3), stride=(1, 1), padding=(1, 1))
      (inception_5b_3x3_bn): BatchNorm2d(320, eps=1e-05, momentum=0.1, affine=True)
      (inception_5b_relu_3x3): ReLU(inplace)
      (inception_5b_double_3x3_reduce): Conv2d(1024, 192, kernel_size=(1, 1), stride=(1, 1))
      (inception_5b_double_3x3_reduce_bn): BatchNorm2d(192, eps=1e-05, momentum=0.1, affine=True)
      (inception_5b_relu_double_3x3_reduce): ReLU(inplace)
      (inception_5b_double_3x3_1): Conv2d(192, 224, kernel_size=(3, 3), stride=(1, 1), padding=(1, 1))
      (inception_5b_double_3x3_1_bn): BatchNorm2d(224, eps=1e-05, momentum=0.1, affine=True)
      (inception_5b_relu_double_3x3_1): ReLU(inplace)
      (inception_5b_double_3x3_2): Conv2d(224, 224, kernel_size=(3, 3), stride=(1, 1), padding=(1, 1))
      (inception_5b_double_3x3_2_bn): BatchNorm2d(224, eps=1e-05, momentum=0.1, affine=True)
      (inception_5b_relu_double_3x3_2): ReLU(inplace)
      (inception_5b_pool): MaxPool2d(kernel_size=(3, 3), stride=(1, 1), padding=(1, 1), dilation=(1, 1), ceil_mode=True)
      (inception_5b_pool_proj): Conv2d(1024, 128, kernel_size=(1, 1), stride=(1, 1))
      (inception_5b_pool_proj_bn): BatchNorm2d(128, eps=1e-05, momentum=0.1, affine=True)
      (inception_5b_relu_pool_proj): ReLU(inplace)
      (global_pool): AvgPool2d(kernel_size=7, stride=1, padding=0, ceil_mode=True, count_include_pad=True)
      (fc): Dropout(p=0.7)
    )
    (new_fc): Linear(in_features=1024, out_features=51, bias=True)
    (consensus): ConsensusModule(
    )
  )
)  and this is the length of fifty data list (supposed to be fifty? 50
[array([[[0, 0, 0],
        [0, 0, 0],
        [0, 0, 0],
        ..., 
        [0, 0, 0],
        [0, 0, 0],
        [0, 0, 0]],

       [[0, 0, 0],
        [0, 0, 0],
        [0, 0, 0],
        ..., 
        [0, 0, 0],
        [0, 0, 0],
…
